…
            "2023-11-01 12:42:46.934471",
            "2023-11-01 12:43:15.006938",
            "2023-11-01 12:43:43.041073",
            "2023-11-01 12:44:11.122178",
            "2023-11-01 12:44:39.207616",
            "2023-11-01 12:45:07.249427",
            "2023-11-01 12:45:35.294246",
            "2023-11-01 12:46:03.402505",
            "2023-11-01 12:46:31.482630",
            "2023-11-01 12:46:59.517310",
            "2023-11-01 12:47:27.589716",
            "2023-11-01 12:47:56.127086"
        ],
        "model": "EfficientNet(\n  (features): Sequential(\n    (0): Conv2dNormActivation(\n      (0): Conv2d(3, 48, kernel_size=(3, 3), stride=(2, 2), padding=(1, 1), bias=False)\n      (1): BatchNorm2d(48, eps=1e-05, momentum=0.1, affine=True, track_running_stats=True)\n      (2): SiLU(inplace=True)\n    )\n    (1): Sequential(\n      (0): MBConv(\n        (block): Sequential(\n          (0): Conv2dNormActivation(\n            (0): Conv2d(48, 48, kernel_size=(3, 3), stride=(1, 1), padding=(1, 1), groups=48, bias=False)\n            (1): BatchNorm2d(48, eps=1e-05, momentum=0.1, affine=True, track_running_stats=True)\n            (2): SiLU(inplace=True)\n          )\n          (1): SqueezeExcitation(\n            (avgpool): AdaptiveAvgPool2d(output_size=1)\n            (fc1): Conv2d(48, 12, kernel_size=(1, 1), stride=(1, 1))\n            (fc2): Conv2d(12, 48, kernel_size=(1, 1), stride=(1, 1))\n            (activation): SiLU(inplace=True)\n            (scale_activation): Sigmoid()\n          )\n          (2): Conv2dNormActivation(\n            (0): Conv2d(48, 24, kernel_size=(1, 1), stride=(1, 1), bias=False)\n            (1): BatchNorm2d(24, eps=1e-05, momentum=0.1, affine=True, track_running_stats=True)\n          )\n        )\n        (stochastic_depth): StochasticDepth(p=0.0, mode=row)\n      )\n      (1): MBConv(\n        (block): Sequential(\n          (0): Conv2dNormActivation(\n            (0): Conv2d(24, 24, kernel_size=(3, 3), stride=(1, 1), padding=(1, 1), groups=24, bias=False)\n            (1): BatchNorm2d(24, eps=1e-05, momentum=0.1, affine=True, track_running_stats=True)\n            (2): SiLU(inplace=True)\n          )\n          (1): SqueezeExcitation(\n            (avgpool): AdaptiveAvgPool2d(output_size=1)\n            (fc1): Conv2d(24, 6, kernel_size=(1, 1), stride=(1, 1))\n            (fc2): Conv2d(6, 24, kernel_size=(1, 1), stride=(1, 1))\n            (activation): SiLU(inplace=True)\n            (scale_activation): Sigmoid()\n          )\n          (2): Conv2dNormActivation(\n            (0): Conv2d(24, 24, kernel_size=(1, 1), stride=(1, 1), bias=False)\n            (1): BatchNorm2d(24, eps=1e-05, momentum=0.1, affine=True, track_running_stats=True)\n          )\n        )\n        (stochastic_depth): StochasticDepth(p=0.00625, mode=row)\n      )\n    )\n    (2): Sequential(\n      (0): MBConv(\n        (block): Sequential(\n          (0): Conv2dNormActivation(\n            (0): Conv2d(24, 144, kernel_size=(1, 1), stride=(1, 1), bias=False)\n            (1): BatchNorm2d(144, eps=1e-05, momentum=0.1, affine=True, track_running_stats=True)\n            (2): SiLU(inplace=True)\n          )\n          (1): Conv2dNormActivation(\n            (0): Conv2d(144, 144, kernel_size=(3, 3), stride=(2, 2), padding=(1, 1), groups=144, bias=False)\n            (1): BatchNorm2d(144, eps=1e-05, momentum=0.1, affine=True, track_running_stats=True)\n            (2): SiLU(inplace=True)\n          )\n          (2): SqueezeExcitation(\n            (avgpool): AdaptiveAvgPool2d(output_size=1)\n            (fc1): Conv2d(144, 6, kernel_size=(1, 1), stride=(1, 1))\n            (fc2): Conv2d(6, 144, kernel_size=(1, 1), stride=(1, 1))\n            (activation): SiLU(inplace=True)\n            (scale_activation): Sigmoid()\n          )\n          (3): Conv2dNormActivation(\n            (0): Conv2d(144, 32, kernel_size=(1, 1), stride=(1, 1), bias=False)\n            (1): BatchNorm2d(32, eps=1e-05, momentum=0.1, affine=True, track_running_stats=True)\n          )\n        )\n        (stochastic_depth): StochasticDepth(p=0.0125, mode=row)\n      )\n      (1): MBConv(\n        (block): Sequential(\n          (0): Conv2dNormActivation(\n            (0): Conv2d(32, 192, kernel_size=(1, 1), stride=(1, 1), bias=False)\n            (1): BatchNorm2d(192, eps=1e-05, momentum=0.1, affine=True, track_running_stats=True)\n            (2): SiLU(inplace=True)\n          )\n          (1): Conv2dNormActivation(\n            (0): Conv2d(192, 192, kernel_size=(3, 3), stride=(1, 1), padding=(1, 1), groups=192, bias=False)\n            (1): BatchNorm2d(192, eps=1e-05, momentum=0.1, affine=True, track_running_stats=True)\n            (2): SiLU(inplace=True)\n          )\n          (2): SqueezeExcitation(\n            (avgpool): AdaptiveAvgPool2d(output_size=1)\n            (fc1): Conv2d(192, 8, kernel_size=(1, 1), stride=(1, 1))\n            (fc2): Conv2d(8, 192, kernel_size=(1, 1), stride=(1, 1))\n            (activation): SiLU(inplace=True)\n            (scale_activation): Sigmoid()\n          )\n          (3): Conv2dNormActivation(\n            (0): Conv2d(192, 32, kernel_size=(1, 1), stride=(1, 1), bias=False)\n            (1): BatchNorm2d(32, eps=1e-05, momentum=0.1, affine=True, track_running_stats=True)\n          )\n        )\n        (stochastic_depth): StochasticDepth(p=0.018750000000000003, mode=row)\n      )\n      (2): MBConv(\n        (block): Sequential(\n          (0): Conv2dNormActivation(\n            (0): Conv2d(32, 192, kernel_size=(1, 1), stride=(1, 1), bias=False)\n            (1): BatchNorm2d(192, eps=1e-05, momentum=0.1, affine=True, track_running_stats=True)\n            (2): SiLU(inplace=True)\n          )\n          (1): Conv2dNormActivation(\n            (0): Conv2d(192, 192, kernel_size=(3, 3), stride=(1, 1), padding=(1, 1), groups=192, bias=False)\n            (1): BatchNorm2d(192, eps=1e-05, momentum=0.1, affine=True, track_running_stats=True)\n            (2): SiLU(inplace=True)\n          )\n          (2): SqueezeExcitation(\n            (avgpool): AdaptiveAvgPool2d(output_size=1)\n            (fc1): Conv2d(192, 8, kernel_size=(1, 1), stride=(1, 1))\n            (fc2): Conv2d(8, 192, kernel_size=(1, 1), stride=(1, 1))\n            (activation): SiLU(inplace=True)\n            (scale_activation): Sigmoid()\n          )\n          (3): Conv2dNormActivation(\n            (0): Conv2d(192, 32, kernel_size=(1, 1), stride=(1, 1), bias=False)\n            (1): BatchNorm2d(32, eps=1e-05, momentum=0.1, affine=True, track_running_stats=True)\n          )\n        )\n        (stochastic_depth): StochasticDepth(p=0.025, mode=row)\n      )\n      (3): MBConv(\n        (block): Sequential(\n          (0): Conv2dNormActivation(\n            (0): Conv2d(32, 192, kernel_size=(1, 1), stride=(1, 1), bias=False)\n            (1): BatchNorm2d(192, eps=1e-05, momentum=0.1, affine=True, track_running_stats=True)\n            (2): SiLU(inplace=True)\n          )\n          (1): Conv2dNormActivation(\n            (0): Conv2d(192, 192, kernel_size=(3, 3), stride=(1, 1), padding=(1, 1), groups=192, bias=False)\n            (1): BatchNorm2d(192, eps=1e-05, momentum=0.1, affine=True, track_running_stats=True)\n            (2): SiLU(inplace=True)\n          )\n          (2): SqueezeExcitation(\n            (avgpool): AdaptiveAvgPool2d(output_size=1)\n            (fc1): Conv2d(192, 8, kernel_size=(1, 1), stride=(1, 1))\n            (fc2): Conv2d(8, 192, kernel_size=(1, 1), stride=(1, 1))\n            (activation): SiLU(inplace=True)\n            (scale_activation): Sigmoid()\n          )\n          (3): Conv2dNormActivation(\n            (0): Conv2d(192, 32, kernel_size=(1, 1), stride=(1, 1), bias=False)\n            (1): BatchNorm2d(32, eps=1e-05, momentum=0.1, affine=True, track_running_stats=True)\n          )\n        )\n        (stochastic_depth): StochasticDepth(p=0.03125, mode=row)\n      )\n    )\n    (3): Sequential(\n      (0): MBConv(\n        (block): Sequential(\n          (0): Conv2dNormActivation(\n            (0): Conv2d(32, 192, kernel_size=(1, 1), stride=(1, 1), bias=False)\n            (1): BatchNorm2d(192, eps=1e-05, momentum=0.1, affine=True, track_running_stats=True)\n            (2): SiLU(inplace=True)\n          )\n          (1): Conv2dNormActivation(\n            (0): Conv2d(192, 192, kernel_size=(5, 5), stride=(2, 2), padding=(2, 2), groups=192, bias=False)\n            (1): BatchNorm2d(192, eps=1e-05, momentum=0.1, affine=True, track_running_stats=True)\n            (2): SiLU(inplace=True)\n          )\n          (2): SqueezeExcitation(\n            (avgpool): AdaptiveAvgPool2d(output_size=1)\n            (fc1): Conv2d(192, 8, kernel_size=(1, 1), stride=(1, 1))\n            (fc2): Conv2d(8, 192, kernel_size=(1, 1), stride=(1, 1))\n            (activation): SiLU(inplace=True)\n            (scale_activation): Sigmoid()\n          )\n          (3): Conv2dNormActivation(\n            (0): Conv2d(192, 56, kernel_size=(1, 1), stride=(1, 1), bias=False)\n            (1): BatchNorm2d(56, eps=1e-05, momentum=0.1, affine=True, track_running_stats=True)\n          )\n        )\n        (stochastic_depth): StochasticDepth(p=0.037500000000000006, mode=row)\n      )\n      (1): MBConv(\n        (block): Sequential(\n          (0): Conv2dNormActivation(\n            (0): Conv2d(56, 336, kernel_size=(1, 1), stride=(1, 1), bias=False)\n            (1): BatchNorm2d(336, eps=1e-05, momentum=0.1, affine=True, track_running_stats=True)\n            (2): SiLU(inplace=True)\n          )\n          (1): Conv2dNormActivation(\n            (0): Conv2d(336, 336, kernel_size=(5, 5), stride=(1, 1), padding=(2, 2), groups=336, bias=False)\n            (1): BatchNorm2d(336, eps=1e-05, momentum=0.1, affine=True, track_running_stats=True)\n            (2): SiLU(inplace=True)\n          )\n          (2): SqueezeExcitation(\n            (avgpool): AdaptiveAvgPool2d(output_size=1)\n            (fc1): Conv2d(336, 14, kernel_size=(1, 1), stride=(1, 1))\n            (fc2): Conv2d(14, 336, kernel_size=(1, 1), stride=(1, 1))\n            (activation): SiLU(inplace=True)\n            (scale_activation): Sigmoid()\n          )\n          (3): Conv2dNormActivation(\n            (0): Conv2d(336, 56, kernel_size=(1, 1), stride=(1, 1), bias=False)\n            (1): BatchNorm2d(56, eps=1e-05, momentum=0.1, affine=True, track_running_stats=True)\n          )\n        )\n        (stochastic_depth): StochasticDepth(p=0.043750000000000004, mode=row)\n      )\n      (2): MBConv(\n        (block): Sequential(\n          (0): Conv2dNormActivation(\n            (0): Conv2d(56, 336, kernel_size=(1, 1), stride=(1, 1), bias=False)\n            (1): BatchNorm2d(336, eps=1e-05, momentum=0.1, affine=True, track_running_stats=True)\n            (2): SiLU(inplace=True)\n          )\n          (1): Conv2dNormActivation(\n            (0): Conv2d(336, 336, kernel_size=(5, 5), stride=(1, 1), padding=(2, 2), groups=336, bias=False)\n            (1): BatchNorm2d(336, eps=1e-05, momentum=0.1, affine=True, track_running_stats=True)\n            (2): SiLU(inplace=True)\n          )\n          (2): SqueezeExcitation(\n            (avgpool): AdaptiveAvgPool2d(output_size=1)\n            (fc1): Conv2d(336, 14, kernel_size=(1, 1), stride=(1, 1))\n            (fc2): Conv2d(14, 336, kernel_size=(1, 1), stride=(1, 1))\n            (activation): SiLU(inplace=True)\n            (scale_activation): Sigmoid()\n          )\n          (3): Conv2dNormActivation(\n            (0): Conv2d(336, 56, kernel_size=(1, 1), stride=(1, 1), bias=False)\n            (1): BatchNorm2d(56, eps=1e-05, momentum=0.1, affine=True, track_running_stats=True)\n          )\n        )\n        (stochastic_depth): StochasticDepth(p=0.05, mode=row)\n      )\n      (3): MBConv(\n        (block): Sequential(\n          (0): Conv2dNormActivation(\n            (0): Conv2d(56, 336, kernel_size=(1, 1), stride=(1, 1), bias=False)\n            (1): BatchNorm2d(336, eps=1e-05, momentum=0.1, affine=True, track_running_stats=True)\n            (2): SiLU(inplace=True)\n          )\n          (1): Conv2dNormActivation(\n            (0): Conv2d(336, 336, kernel_size=(5, 5), stride=(1, 1), padding=(2, 2), groups=336, bias=False)\n            (1): BatchNorm2d(336, eps=1e-05, momentum=0.1, affine=True, track_running_stats=True)\n            (2): SiLU(inplace=True)\n          )\n          (2): SqueezeExcitation(\n            (avgpool): AdaptiveAvgPool2d(output_size=1)\n            (fc1): Conv2d(336, 14, kernel_size=(1, 1), stride=(1, 1))\n            (fc2): Conv2d(14, 336, kernel_size=(1, 1), stride=(1, 1))\n            (activation): SiLU(inplace=True)\n            (scale_activation): Sigmoid()\n          )\n          (3): Conv2dNormActivation(\n            (0): Conv2d(336, 56, kernel_size=(1, 1), stride=(1, 1), bias=False)\n            (1): BatchNorm2d(56, eps=1e-05, momentum=0.1, affine=True, track_running_stats=True)\n          )\n        )\n        (stochastic_depth): StochasticDepth(p=0.05625, mode=row)\n      )\n    )\n    (4): Sequential(\n      (0): MBConv(\n        (block): Sequential(\n          (0): Conv2dNormActivation(\n            (0): Conv2d(56, 336, kernel_size=(1, 1), stride=(1, 1), bias=False)\n            (1): BatchNorm2d(336, eps=1e-05, momentum=0.1, affine=True, track_running_stats=True)\n            (2): SiLU(inplace=True)\n          )\n          (1): Conv2dNormActivation(\n            (0): Conv2d(336, 336, kernel_size=(3, 3), stride=(2, 2), padding=(1, 1), groups=336, bias=False)\n            (1): BatchNorm2d(336, eps=1e-05, momentum=0.1, affine=True, track_running_stats=True)\n            (2): SiLU(inplace=True)\n          )\n          (2): SqueezeExcitation(\n            (avgpool): AdaptiveAvgPool2d(output_size=1)\n            (fc1): Conv2d(336, 14, kernel_size=(1, 1), stride=(1, 1))\n            (fc2): Conv2d(14, 336, kernel_size=(1, 1), stride=(1, 1))\n            (activation): SiLU(inplace=True)\n            (scale_activation): Sigmoid()\n          )\n          (3): Conv2dNormActivation(\n            (0): Conv2d(336, 112, kernel_size=(1, 1), stride=(1, 1), bias=False)\n            (1): BatchNorm2d(112, eps=1e-05, momentum=0.1, affine=True, track_running_stats=True)\n          )\n        )\n        (stochastic_depth): StochasticDepth(p=0.0625, mode=row)\n      )\n      (1): MBConv(\n        (block): Sequential(\n          (0): Conv2dNormActivation(\n            (0): Conv2d(112, 672, kernel_size=(1, 1), stride=(1, 1), bias=False)\n            (1): BatchNorm2d(672, eps=1e-05, momentum=0.1, affine=True, track_running_stats=True)\n            (2): SiLU(inplace=True)\n          )\n          (1): Conv2dNormActivation(\n            (0): Conv2d(672, 672, kernel_size=(3, 3), stride=(1, 1), padding=(1, 1), groups=672, bias=False)\n            (1): BatchNorm2d(672, eps=1e-05, momentum=0.1, affine=True, track_running_stats=True)\n            (2): SiLU(inplace=True)\n          )\n          (2): SqueezeExcitation(\n            (avgpool): AdaptiveAvgPool2d(output_size=1)\n            (fc1): Conv2d(672, 28, kernel_size=(1, 1), stride=(1, 1))\n            (fc2): Conv2d(28, 672, kernel_size=(1, 1), stride=(1, 1))\n            (activation): SiLU(inplace=True)\n            (scale_activation): Sigmoid()\n          )\n          (3): Conv2dNormActivation(\n            (0): Conv2d(672, 112, kernel_size=(1, 1), stride=(1, 1), bias=False)\n            (1): BatchNorm2d(112, eps=1e-05, momentum=0.1, affine=True, track_running_stats=True)\n          )\n        )\n        (stochastic_depth): StochasticDepth(p=0.06875, mode=row)\n      )\n      (2): MBConv(\n        (block): Sequential(\n          (0): Conv2dNormActivation(\n            (0): Conv2d(112, 672, kernel_size=(1, 1), stride=(1, 1), bias=False)\n            (1): BatchNorm2d(672, eps=1e-05, momentum=0.1, affine=True, track_running_stats=True)\n            (2): SiLU(inplace=True)\n          )\n          (1): Conv2dNormActivation(\n            (0): Conv2d(672, 672, kernel_size=(3, 3), stride=(1, 1), padding=(1, 1), groups=672, bias=False)\n            (1): BatchNorm2d(672, eps=1e-05, momentum=0.1, affine=True, track_running_stats=True)\n            (2): SiLU(inplace=True)\n          )\n          (2): SqueezeExcitation(\n            (avgpool): AdaptiveAvgPool2d(output_size=1)\n            (fc1): Conv2d(672, 28, kernel_size=(1, 1), stride=(1, 1))\n            (fc2): Conv2d(28, 672, kernel_size=(1, 1), stride=(1, 1))\n            (activation): SiLU(inplace=True)\n            (scale_activation): Sigmoid()\n          )\n          (3): Conv2dNormActivation(\n            (0): Conv2d(672, 112, kernel_size=(1, 1), stride=(1, 1), bias=False)\n            (1): BatchNorm2d(112, eps=1e-05, momentum=0.1, affine=True, track_running_stats=True)\n          )\n        )\n        (stochastic_depth): StochasticDepth(p=0.07500000000000001, mode=row)\n      )\n      (3): MBConv(\n        (block): Sequential(\n          (0): Conv2dNormActivation(\n            (0): Conv2d(112, 672, kernel_size=(1, 1), stride=(1, 1), bias=False)\n            (1): BatchNorm2d(672, eps=1e-05, momentum=0.1, affine=True, track_running_stats=True)\n            (2): SiLU(inplace=True)\n          )\n          (1): Conv2dNormActivation(\n            (0): Conv2d(672, 672, kernel_size=(3, 3), stride=(1, 1), padding=(1, 1), groups=672, bias=False)\n            (1): BatchNorm2d(672, eps=1e-05, momentum=0.1, affine=True, track_running_stats=True)\n            (2): SiLU(inplace=True)\n          )\n          (2): SqueezeExcitation(\n            (avgpool): AdaptiveAvgPool2d(output_size=1)\n            (fc1): Conv2d(672, 28, kernel_size=(1, 1), stride=(1, 1))\n            (fc2): Conv2d(28, 672, kernel_size=(1, 1), stride=(1, 1))\n            (activation): SiLU(inplace=True)\n            (scale_activation): Sigmoid()\n          )\n          (3): Conv2dNormActivation(\n            (0): Conv2d(672, 112, kernel_size=(1, 1), stride=(1, 1), bias=False)\n            (1): BatchNorm2d(112, eps=1e-05, momentum=0.1, affine=True, track_running_stats=True)\n          )\n        )\n        (stochastic_depth): StochasticDepth(p=0.08125, mode=row)\n      )\n      (4): MBConv(\n        (block): Sequential(\n          (0): Conv2dNormActivation(\n            (0): Conv2d(112, 672, kernel_size=(1, 1), stride=(1, 1), bias=False)\n            (1): BatchNorm2d(672, eps=1e-05, momentum=0.1, affine=True, track_running_stats=True)\n            (2): SiLU(inplace=True)\n          )\n          (1): Conv2dNormActivation(\n            (0): Conv2d(672, 672, kernel_size=(3, 3), stride=(1, 1), padding=(1, 1), groups=672, bias=False)\n            (1): BatchNorm2d(672, eps=1e-05, momentum=0.1, affine=True, track_running_stats=True)\n            (2): SiLU(inplace=True)\n          )\n          (2): SqueezeExcitation(\n            (avgpool): AdaptiveAvgPool2d(output_size=1)\n            (fc1): Conv2d(672, 28, kernel_size=(1, 1), stride=(1, 1))\n            (fc2): Conv2d(28, 672, kernel_size=(1, 1), stride=(1, 1))\n            (activation): SiLU(inplace=True)\n            (scale_activation): Sigmoid()\n          )\n          (3): Conv2dNormActivation(\n            (0): Conv2d(672, 112, kernel_size=(1, 1), stride=(1, 1), bias=False)\n            (1): BatchNorm2d(112, eps=1e-05, momentum=0.1, affine=True, track_running_stats=True)\n          )\n        )\n        (stochastic_depth): StochasticDepth(p=0.08750000000000001, mode=row)\n      )\n      (5): MBConv(\n        (block): Sequential(\n          (0): Conv2dNormActivation(\n            (0): Conv2d(112, 672, kernel_size=(1, 1), stride=(1, 1), bias=False)\n            (1): BatchNorm2d(672, eps=1e-05, momentum=0.1, affine=True, track_running_stats=True)\n            (2): SiLU(inplace=True)\n          )\n          (1): Conv2dNormActivation(\n            (0): Conv2d(672, 672, kernel_size=(3, 3), stride=(1, 1), padding=(1, 1), groups=672, bias=False)\n            (1): BatchNorm2d(672, eps=1e-05, momentum=0.1, affine=True, track_running_stats=True)\n            (2): SiLU(inplace=True)\n          )\n          (2): SqueezeExcitation(\n            (avgpool): AdaptiveAvgPool2d(output_size=1)\n            (fc1): Conv2d(672, 28, kernel_size=(1, 1), stride=(1, 1))\n            (fc2): Conv2d(28, 672, kernel_size=(1, 1), stride=(1, 1))\n            (activation): SiLU(inplace=True)\n            (scale_activation): Sigmoid()\n          )\n          (3): Conv2dNormActivation(\n            (0): Conv2d(672, 112, kernel_size=(1, 1), stride=(1, 1), bias=False)\n            (1): BatchNorm2d(112, eps=1e-05, momentum=0.1, affine=True, track_running_stats=True)\n          )\n        )\n        (stochastic_depth): StochasticDepth(p=0.09375, mode=row)\n      )\n    )\n    (5): Sequential(\n      (0): MBConv(\n        (block): Sequential(\n          (0): Conv2dNormActivation(\n            (0): Conv2d(112, 672, kernel_size=(1, 1), stride=(1, 1), bias=False)\n            (1): BatchNorm2d(672, eps=1e-05, momentum=0.1, affine=True, track_running_stats=True)\n            (2): SiLU(inplace=True)\n          )\n          (1): Conv2dNormActivation(\n            (0): Conv2d(672, 672, kernel_size=(5, 5), stride=(1, 1), padding=(2, 2), groups=672, bias=False)\n            (1): BatchNorm2d(672, eps=1e-05, momentum=0.1, affine=True, track_running_stats=True)\n            (2): SiLU(inplace=True)\n          )\n          (2): SqueezeExcitation(\n            (avgpool): AdaptiveAvgPool2d(output_size=1)\n            (fc1): Conv2d(672, 28, kernel_size=(1, 1), stride=(1, 1))\n            (fc2): Conv2d(28, 672, kernel_size=(1, 1), stride=(1, 1))\n            (activation): SiLU(inplace=True)\n            (scale_activation): Sigmoid()\n          )\n          (3): Conv2dNormActivation(\n            (0): Conv2d(672, 160, kernel_size=(1, 1), stride=(1, 1), bias=False)\n            (1): BatchNorm2d(160, eps=1e-05, momentum=0.1, affine=True, track_running_stats=True)\n          )\n        )\n        (stochastic_depth): StochasticDepth(p=0.1, mode=row)\n      )\n      (1): MBConv(\n        (block): Sequential(\n          (0): Conv2dNormActivation(\n            (0): Conv2d(160, 960, kernel_size=(1, 1), stride=(1, 1), bias=False)\n            (1): BatchNorm2d(960, eps=1e-05, momentum=0.1, affine=True, track_running_stats=True)\n            (2): SiLU(inplace=True)\n          )\n          (1): Conv2dNormActivation(\n            (0): Conv2d(960, 960, kernel_size=(5, 5), stride=(1, 1), padding=(2, 2), groups=960, bias=False)\n            (1): BatchNorm2d(960, eps=1e-05, momentum=0.1, affine=True, track_running_stats=True)\n            (2): SiLU(inplace=True)\n          )\n          (2): SqueezeExcitation(\n            (avgpool): AdaptiveAvgPool2d(output_size=1)\n            (fc1): Conv2d(960, 40, kernel_size=(1, 1), stride=(1, 1))\n            (fc2): Conv2d(40, 960, kernel_size=(1, 1), stride=(1, 1))\n            (activation): SiLU(inplace=True)\n            (scale_activation): Sigmoid()\n          )\n          (3): Conv2dNormActivation(\n            (0): Conv2d(960, 160, kernel_size=(1, 1), stride=(1, 1), bias=False)\n            (1): BatchNorm2d(160, eps=1e-05, momentum=0.1, affine=True, track_running_stats=True)\n          )\n        )\n        (stochastic_depth): StochasticDepth(p=0.10625000000000001, mode=row)\n      )\n      (2): MBConv(\n        (block): Sequential(\n          (0): Conv2dNormActivation(\n            (0): Conv2d(160, 960, kernel_size=(1, 1), stride=(1, 1), bias=False)\n            (1): BatchNorm2d(960, eps=1e-05, momentum=0.1, affine=True, track_running_stats=True)\n            (2): SiLU(inplace=True)\n          )\n          (1): Conv2dNormActivation(\n            (0): Conv2d(960, 960, kernel_size=(5, 5), stride=(1, 1), padding=(2, 2), groups=960, bias=False)\n            (1): BatchNorm2d(960, eps=1e-05, momentum=0.1, affine=True, track_running_stats=True)\n            (2): SiLU(inplace=True)\n          )\n          (2): SqueezeExcitation(\n            (avgpool): AdaptiveAvgPool2d(output_size=1)\n            (fc1): Conv2d(960, 40, kernel_size=(1, 1), stride=(1, 1))\n            (fc2): Conv2d(40, 960, kernel_size=(1, 1), stride=(1, 1))\n            (activation): SiLU(inplace=True)\n            (scale_activation): Sigmoid()\n          )\n          (3): Conv2dNormActivation(\n            (0): Conv2d(960, 160, kernel_size=(1, 1), stride=(1, 1), bias=False)\n            (1): BatchNorm2d(160, eps=1e-05, momentum=0.1, affine=True, track_running_stats=True)\n          )\n        )\n        (stochastic_depth): StochasticDepth(p=0.1125, mode=row)\n      )\n      (3): MBConv(\n        (block): Sequential(\n          (0): Conv2dNormActivation(\n            (0): Conv2d(160, 960, kernel_size=(1, 1), stride=(1, 1), bias=False)\n            (1): BatchNorm2d(960, eps=1e-05, momentum=0.1, affine=True, track_running_stats=True)\n            (2): SiLU(inplace=True)\n          )\n          (1): Conv2dNormActivation(\n            (0): Conv2d(960, 960, kernel_size=(5, 5), stride=(1, 1), padding=(2, 2), groups=960, bias=False)\n            (1): BatchNorm2d(960, eps=1e-05, momentum=0.1, affine=True, track_running_stats=True)\n            (2): SiLU(inplace=True)\n          )\n          (2): SqueezeExcitation(\n            (avgpool): AdaptiveAvgPool2d(output_size=1)\n            (fc1): Conv2d(960, 40, kernel_size=(1, 1), stride=(1, 1))\n            (fc2): Conv2d(40, 960, kernel_size=(1, 1), stride=(1, 1))\n            (activation): SiLU(inplace=True)\n            (scale_activation): Sigmoid()\n          )\n          (3): Conv2dNormActivation(\n            (0): Conv2d(960, 160, kernel_size=(1, 1), stride=(1, 1), bias=False)\n            (1): BatchNorm2d(160, eps=1e-05, momentum=0.1, affine=True, track_running_stats=True)\n          )\n        )\n        (stochastic_depth): StochasticDepth(p=0.11875000000000001, mode=row)\n      )\n      (4): MBConv(\n        (block): Sequential(\n          (0): Conv2dNormActivation(\n            (0): Conv2d(160, 960, kernel_size=(1, 1), stride=(1, 1), bias=False)\n            (1): BatchNorm2d(960, eps=1e-05, momentum=0.1, affine=True, track_running_stats=True)\n            (2): SiLU(inplace=True)\n          )\n          (1): Conv2dNormActivation(\n            (0): Conv2d(960, 960, kernel_size=(5, 5), stride=(1, 1), padding=(2, 2), groups=960, bias=False)\n            (1): BatchNorm2d(960, eps=1e-05, momentum=0.1, affine=True, track_running_stats=True)\n            (2): SiLU(inplace=True)\n          )\n          (2): SqueezeExcitation(\n            (avgpool): AdaptiveAvgPool2d(output_size=1)\n            (fc1): Conv2d(960, 40, kernel_size=(1, 1), stride=(1, 1))\n            (fc2): Conv2d(40, 960, kernel_size=(1, 1), stride=(1, 1))\n            (activation): SiLU(inplace=True)\n            (scale_activation): Sigmoid()\n          )\n          (3): Conv2dNormActivation(\n            (0): Conv2d(960, 160, kernel_size=(1, 1), stride=(1, 1), bias=False)\n            (1): BatchNorm2d(160, eps=1e-05, momentum=0.1, affine=True, track_running_stats=True)\n          )\n        )\n        (stochastic_depth): StochasticDepth(p=0.125, mode=row)\n      )\n      (5): MBConv(\n        (block): Sequential(\n          (0): Conv2dNormActivation(\n            (0): Conv2d(160, 960, kernel_size=(1, 1), stride=(1, 1), bias=False)\n            (1): BatchNorm2d(960, eps=1e-05, momentum=0.1, affine=True, track_running_stats=True)\n            (2): SiLU(inplace=True)\n          )\n          (1): Conv2dNormActivation(\n            (0): Conv2d(960, 960, kernel_size=(5, 5), stride=(1, 1), padding=(2, 2), groups=960, bias=False)\n            (1): BatchNorm2d(960, eps=1e-05, momentum=0.1, affine=True, track_running_stats=True)\n            (2): SiLU(inplace=True)\n          )\n          (2): SqueezeExcitation(\n            (avgpool): AdaptiveAvgPool2d(output_size=1)\n            (fc1): Conv2d(960, 40, kernel_size=(1, 1), stride=(1, 1))\n            (fc2): Conv2d(40, 960, kernel_size=(1, 1), stride=(1, 1))\n            (activation): SiLU(inplace=True)\n            (scale_activation): Sigmoid()\n          )\n          (3): Conv2dNormActivation(\n            (0): Conv2d(960, 160, kernel_size=(1, 1), stride=(1, 1), bias=False)\n            (1): BatchNorm2d(160, eps=1e-05, momentum=0.1, affine=True, track_running_stats=True)\n          )\n        )\n        (stochastic_depth): StochasticDepth(p=0.13125, mode=row)\n      )\n    )\n    (6): Sequential(\n      (0): MBConv(\n        (block): Sequential(\n          (0): Conv2dNormActivation(\n            (0): Conv2d(160, 960, kernel_size=(1, 1), stride=(1, 1), bias=False)\n            (1): BatchNorm2d(960, eps=1e-05, momentum=0.1, affine=True, track_running_stats=True)\n            (2): SiLU(inplace=True)\n          )\n          (1): Conv2dNormActivation(\n            (0): Conv2d(960, 960, kernel_size=(5, 5), stride=(2, 2), padding=(2, 2), groups=960, bias=False)\n            (1): BatchNorm2d(960, eps=1e-05, momentum=0.1, affine=True, track_running_stats=True)\n            (2): SiLU(inplace=True)\n          )\n          (2): SqueezeExcitation(\n            (avgpool): AdaptiveAvgPool2d(output_size=1)\n            (fc1): Conv2d(960, 40, kernel_size=(1, 1), stride=(1, 1))\n            (fc2): Conv2d(40, 960, kernel_size=(1, 1), stride=(1, 1))\n            (activation): SiLU(inplace=True)\n            (scale_activation): Sigmoid()\n          )\n          (3): Conv2dNormActivation(\n            (0): Conv2d(960, 272, kernel_size=(1, 1), stride=(1, 1), bias=False)\n            (1): BatchNorm2d(272, eps=1e-05, momentum=0.1, affine=True, track_running_stats=True)\n          )\n        )\n        (stochastic_depth): StochasticDepth(p=0.1375, mode=row)\n      )\n      (1): MBConv(\n        (block): Sequential(\n          (0): Conv2dNormActivation(\n            (0): Conv2d(272, 1632, kernel_size=(1, 1), stride=(1, 1), bias=False)\n            (1): BatchNorm2d(1632, eps=1e-05, momentum=0.1, affine=True, track_running_stats=True)\n            (2): SiLU(inplace=True)\n          )\n          (1): Conv2dNormActivation(\n            (0): Conv2d(1632, 1632, kernel_size=(5, 5), stride=(1, 1), padding=(2, 2), groups=1632, bias=False)\n            (1): BatchNorm2d(1632, eps=1e-05, momentum=0.1, affine=True, track_running_stats=True)\n            (2): SiLU(inplace=True)\n          )\n          (2): SqueezeExcitation(\n            (avgpool): AdaptiveAvgPool2d(output_size=1)\n            (fc1): Conv2d(1632, 68, kernel_size=(1, 1), stride=(1, 1))\n            (fc2): Conv2d(68, 1632, kernel_size=(1, 1), stride=(1, 1))\n            (activation): SiLU(inplace=True)\n            (scale_activation): Sigmoid()\n          )\n          (3): Conv2dNormActivation(\n            (0): Conv2d(1632, 272, kernel_size=(1, 1), stride=(1, 1), bias=False)\n            (1): BatchNorm2d(272, eps=1e-05, momentum=0.1, affine=True, track_running_stats=True)\n          )\n        )\n        (stochastic_depth): StochasticDepth(p=0.14375000000000002, mode=row)\n      )\n      (2): MBConv(\n        (block): Sequential(\n          (0): Conv2dNormActivation(\n            (0): Conv2d(272, 1632, kernel_size=(1, 1), stride=(1, 1), bias=False)\n            (1): BatchNorm2d(1632, eps=1e-05, momentum=0.1, affine=True, track_running_stats=True)\n            (2): SiLU(inplace=True)\n          )\n          (1): Conv2dNormActivation(\n            (0): Conv2d(1632, 1632, kernel_size=(5, 5), stride=(1, 1), padding=(2, 2), groups=1632, bias=False)\n            (1): BatchNorm2d(1632, eps=1e-05, momentum=0.1, affine=True, track_running_stats=True)\n            (2): SiLU(inplace=True)\n          )\n          (2): SqueezeExcitation(\n            (avgpool): AdaptiveAvgPool2d(output_size=1)\n            (fc1): Conv2d(1632, 68, kernel_size=(1, 1), stride=(1, 1))\n            (fc2): Conv2d(68, 1632, kernel_size=(1, 1), stride=(1, 1))\n            (activation): SiLU(inplace=True)\n            (scale_activation): Sigmoid()\n          )\n          (3): Conv2dNormActivation(\n            (0): Conv2d(1632, 272, kernel_size=(1, 1), stride=(1, 1), bias=False)\n            (1): BatchNorm2d(272, eps=1e-05, momentum=0.1, affine=True, track_running_stats=True)\n          )\n        )\n        (stochastic_depth): StochasticDepth(p=0.15000000000000002, mode=row)\n      )\n      (3): MBConv(\n        (block): Sequential(\n          (0): Conv2dNormActivation(\n            (0): Conv2d(272, 1632, kernel_size=(1, 1), stride=(1, 1), bias=False)\n            (1): BatchNorm2d(1632, eps=1e-05, momentum=0.1, affine=True, track_running_stats=True)\n            (2): SiLU(inplace=True)\n          )\n          (1): Conv2dNormActivation(\n            (0): Conv2d(1632, 1632, kernel_size=(5, 5), stride=(1, 1), padding=(2, 2), groups=1632, bias=False)\n            (1): BatchNorm2d(1632, eps=1e-05, momentum=0.1, affine=True, track_running_stats=True)\n            (2): SiLU(inplace=True)\n          )\n          (2): SqueezeExcitation(\n            (avgpool): AdaptiveAvgPool2d(output_size=1)\n            (fc1): Conv2d(1632, 68, kernel_size=(1, 1), stride=(1, 1))\n            (fc2): Conv2d(68, 1632, kernel_size=(1, 1), stride=(1, 1))\n            (activation): SiLU(inplace=True)\n            (scale_activation): Sigmoid()\n          )\n          (3): Conv2dNormActivation(\n            (0): Conv2d(1632, 272, kernel_size=(1, 1), stride=(1, 1), bias=False)\n            (1): BatchNorm2d(272, eps=1e-05, momentum=0.1, affine=True, track_running_stats=True)\n          )\n        )\n        (stochastic_depth): StochasticDepth(p=0.15625, mode=row)\n      )\n      (4): MBConv(\n        (block): Sequential(\n          (0): Conv2dNormActivation(\n            (0): Conv2d(272, 1632, kernel_size=(1, 1), stride=(1, 1), bias=False)\n            (1): BatchNorm2d(1632, eps=1e-05, momentum=0.1, affine=True, track_running_stats=True)\n            (2): SiLU(inplace=True)\n          )\n          (1): Conv2dNormActivation(\n            (0): Conv2d(1632, 1632, kernel_size=(5, 5), stride=(1, 1), padding=(2, 2), groups=1632, bias=False)\n            (1): BatchNorm2d(1632, eps=1e-05, momentum=0.1, affine=True, track_running_stats=True)\n            (2): SiLU(inplace=True)\n          )\n          (2): SqueezeExcitation(\n            (avgpool): AdaptiveAvgPool2d(output_size=1)\n            (fc1): Conv2d(1632, 68, kernel_size=(1, 1), stride=(1, 1))\n            (fc2): Conv2d(68, 1632, kernel_size=(1, 1), stride=(1, 1))\n            (activation): SiLU(inplace=True)\n            (scale_activation): Sigmoid()\n          )\n          (3): Conv2dNormActivation(\n            (0): Conv2d(1632, 272, kernel_size=(1, 1), stride=(1, 1), bias=False)\n            (1): BatchNorm2d(272, eps=1e-05, momentum=0.1, affine=True, track_running_stats=True)\n          )\n        )\n        (stochastic_depth): StochasticDepth(p=0.1625, mode=row)\n      )\n      (5): MBConv(\n        (block): Sequential(\n          (0): Conv2dNormActivation(\n            (0): Conv2d(272, 1632, kernel_size=(1, 1), stride=(1, 1), bias=False)\n            (1): BatchNorm2d(1632, eps=1e-05, momentum=0.1, affine=True, track_running_stats=True)\n            (2): SiLU(inplace=True)\n          )\n          (1): Conv2dNormActivation(\n            (0): Conv2d(1632, 1632, kernel_size=(5, 5), stride=(1, 1), padding=(2, 2), groups=1632, bias=False)\n            (1): BatchNorm2d(1632, eps=1e-05, momentum=0.1, affine=True, track_running_stats=True)\n            (2): SiLU(inplace=True)\n          )\n          (2): SqueezeExcitation(\n            (avgpool): AdaptiveAvgPool2d(output_size=1)\n            (fc1): Conv2d(1632, 68, kernel_size=(1, 1), stride=(1, 1))\n            (fc2): Conv2d(68, 1632, kernel_size=(1, 1), stride=(1, 1))\n            (activation): SiLU(inplace=True)\n            (scale_activation): Sigmoid()\n          )\n          (3): Conv2dNormActivation(\n            (0): Conv2d(1632, 272, kernel_size=(1, 1), stride=(1, 1), bias=False)\n            (1): BatchNorm2d(272, eps=1e-05, momentum=0.1, affine=True, track_running_stats=True)\n          )\n        )\n        (stochastic_depth): StochasticDepth(p=0.16875, mode=row)\n      )\n      (6): MBConv(\n        (block): Sequential(\n          (0): Conv2dNormActivation(\n            (0): Conv2d(272, 1632, kernel_size=(1, 1), stride=(1, 1), bias=False)\n            (1): BatchNorm2d(1632, eps=1e-05, momentum=0.1, affine=True, track_running_stats=True)\n            (2): SiLU(inplace=True)\n          )\n          (1): Conv2dNormActivation(\n            (0): Conv2d(1632, 1632, kernel_size=(5, 5), stride=(1, 1), padding=(2, 2), groups=1632, bias=False)\n            (1): BatchNorm2d(1632, eps=1e-05, momentum=0.1, affine=True, track_running_stats=True)\n            (2): SiLU(inplace=True)\n          )\n          (2): SqueezeExcitation(\n            (avgpool): AdaptiveAvgPool2d(output_size=1)\n            (fc1): Conv2d(1632, 68, kernel_size=(1, 1), stride=(1, 1))\n            (fc2): Conv2d(68, 1632, kernel_size=(1, 1), stride=(1, 1))\n            (activation): SiLU(inplace=True)\n            (scale_activation): Sigmoid()\n          )\n          (3): Conv2dNormActivation(\n            (0): Conv2d(1632, 272, kernel_size=(1, 1), stride=(1, 1), bias=False)\n            (1): BatchNorm2d(272, eps=1e-05, momentum=0.1, affine=True, track_running_stats=True)\n          )\n        )\n        (stochastic_depth): StochasticDepth(p=0.17500000000000002, mode=row)\n      )\n      (7): MBConv(\n        (block): Sequential(\n          (0): Conv2dNormActivation(\n            (0): Conv2d(272, 1632, kernel_size=(1, 1), stride=(1, 1), bias=False)\n            (1): BatchNorm2d(1632, eps=1e-05, momentum=0.1, affine=True, track_running_stats=True)\n            (2): SiLU(inplace=True)\n          )\n          (1): Conv2dNormActivation(\n            (0): Conv2d(1632, 1632, kernel_size=(5, 5), stride=(1, 1), padding=(2, 2), groups=1632, bias=False)\n            (1): BatchNorm2d(1632, eps=1e-05, momentum=0.1, affine=True, track_running_stats=True)\n            (2): SiLU(inplace=True)\n          )\n          (2): SqueezeExcitation(\n            (avgpool): AdaptiveAvgPool2d(output_size=1)\n            (fc1): Conv2d(1632, 68, kernel_size=(1, 1), stride=(1, 1))\n            (fc2): Conv2d(68, 1632, kernel_size=(1, 1), stride=(1, 1))\n            (activation): SiLU(inplace=True)\n            (scale_activation): Sigmoid()\n          )\n          (3): Conv2dNormActivation(\n            (0): Conv2d(1632, 272, kernel_size=(1, 1), stride=(1, 1), bias=False)\n            (1): BatchNorm2d(272, eps=1e-05, momentum=0.1, affine=True, track_running_stats=True)\n          )\n        )\n        (stochastic_depth): StochasticDepth(p=0.18125000000000002, mode=row)\n      )\n    )\n    (7): Sequential(\n      (0): MBConv(\n        (block): Sequential(\n          (0): Conv2dNormActivation(\n            (0): Conv2d(272, 1632, kernel_size=(1, 1), stride=(1, 1), bias=False)\n            (1): BatchNorm2d(1632, eps=1e-05, momentum=0.1, affine=True, track_running_stats=True)\n            (2): SiLU(inplace=True)\n          )\n          (1): Conv2dNormActivation(\n            (0): Conv2d(1632, 1632, kernel_size=(3, 3), stride=(1, 1), padding=(1, 1), groups=1632, bias=False)\n            (1): BatchNorm2d(1632, eps=1e-05, momentum=0.1, affine=True, track_running_stats=True)\n            (2): SiLU(inplace=True)\n          )\n          (2): SqueezeExcitation(\n            (avgpool): AdaptiveAvgPool2d(output_size=1)\n            (fc1): Conv2d(1632, 68, kernel_size=(1, 1), stride=(1, 1))\n            (fc2): Conv2d(68, 1632, kernel_size=(1, 1), stride=(1, 1))\n            (activation): SiLU(inplace=True)\n            (scale_activation): Sigmoid()\n          )\n          (3): Conv2dNormActivation(\n            (0): Conv2d(1632, 448, kernel_size=(1, 1), stride=(1, 1), bias=False)\n            (1): BatchNorm2d(448, eps=1e-05, momentum=0.1, affine=True, track_running_stats=True)\n          )\n        )\n        (stochastic_depth): StochasticDepth(p=0.1875, mode=row)\n      )\n      (1): MBConv(\n        (block): Sequential(\n          (0): Conv2dNormActivation(\n            (0): Conv2d(448, 2688, kernel_size=(1, 1), stride=(1, 1), bias=False)\n            (1): BatchNorm2d(2688, eps=1e-05, momentum=0.1, affine=True, track_running_stats=True)\n            (2): SiLU(inplace=True)\n          )\n          (1): Conv2dNormActivation(\n            (0): Conv2d(2688, 2688, kernel_size=(3, 3), stride=(1, 1), padding=(1, 1), groups=2688, bias=False)\n            (1): BatchNorm2d(2688, eps=1e-05, momentum=0.1, affine=True, track_running_stats=True)\n            (2): SiLU(inplace=True)\n          )\n          (2): SqueezeExcitation(\n            (avgpool): AdaptiveAvgPool2d(output_size=1)\n            (fc1): Conv2d(2688, 112, kernel_size=(1, 1), stride=(1, 1))\n            (fc2): Conv2d(112, 2688, kernel_size=(1, 1), stride=(1, 1))\n            (activation): SiLU(inplace=True)\n            (scale_activation): Sigmoid()\n          )\n          (3): Conv2dNormActivation(\n            (0): Conv2d(2688, 448, kernel_size=(1, 1), stride=(1, 1), bias=False)\n            (1): BatchNorm2d(448, eps=1e-05, momentum=0.1, affine=True, track_running_stats=True)\n          )\n        )\n        (stochastic_depth): StochasticDepth(p=0.19375, mode=row)\n      )\n    )\n    (8): Conv2dNormActivation(\n      (0): Conv2d(448, 1792, kernel_size=(1, 1), stride=(1, 1), bias=False)\n      (1): BatchNorm2d(1792, eps=1e-05, momentum=0.1, affine=True, track_running_stats=True)\n      (2): SiLU(inplace=True)\n    )\n  )\n  (avgpool): AdaptiveAvgPool2d(output_size=1)\n  (classifier): Sequential(\n    (0): Dropout(p=0.4, inplace=True)\n    (1): Linear(in_features=1792, out_features=2, bias=True)\n  )\n)",
        "test_data": [
            "https://raw.githubusercontent.com/TacoXDD/homeworks/master/dataset/test/test_normal.npy",
            "https://raw.githubusercontent.com/TacoXDD/homeworks/master/dataset/test/test_pneumonia.npy"
        ],
        "test_avg_loss": 1.8506686331462474,
        "test_accuracy": 75.25
    }
]