…
            "2023-10-30 06:44:01.944211",
            "2023-10-30 06:44:08.323846",
            "2023-10-30 06:44:14.912701",
            "2023-10-30 06:44:21.335373",
            "2023-10-30 06:44:27.705009",
            "2023-10-30 06:44:34.125023",
            "2023-10-30 06:44:40.560238",
            "2023-10-30 06:44:47.001643",
            "2023-10-30 06:44:53.481339",
            "2023-10-30 06:44:59.976819",
            "2023-10-30 06:45:06.453221",
            "2023-10-30 06:45:13.012312",
            "2023-10-30 06:45:19.616565",
            "2023-10-30 06:45:26.165578"
        ],
        "model": "ResNet(\n  (conv1): Conv2d(3, 64, kernel_size=(7, 7), stride=(2, 2), padding=(3, 3), bias=False)\n  (bn1): BatchNorm2d(64, eps=1e-05, momentum=0.1, affine=True, track_running_stats=True)\n  (relu): ReLU(inplace=True)\n  (maxpool): MaxPool2d(kernel_size=3, stride=2, padding=1, dilation=1, ceil_mode=False)\n  (layer1): Sequential(\n    (0): BasicBlock(\n      (conv1): Conv2d(64, 64, kernel_size=(3, 3), stride=(1, 1), padding=(1, 1), bias=False)\n      (bn1): BatchNorm2d(64, eps=1e-05, momentum=0.1, affine=True, track_running_stats=True)\n      (relu): ReLU(inplace=True)\n      (conv2): Conv2d(64, 64, kernel_size=(3, 3), stride=(1, 1), padding=(1, 1), bias=False)\n      (bn2): BatchNorm2d(64, eps=1e-05, momentum=0.1, affine=True, track_running_stats=True)\n    )\n    (1): BasicBlock(\n      (conv1): Conv2d(64, 64, kernel_size=(3, 3), stride=(1, 1), padding=(1, 1), bias=False)\n      (bn1): BatchNorm2d(64, eps=1e-05, momentum=0.1, affine=True, track_running_stats=True)\n      (relu): ReLU(inplace=True)\n      (conv2): Conv2d(64, 64, kernel_size=(3, 3), stride=(1, 1), padding=(1, 1), bias=False)\n      (bn2): BatchNorm2d(64, eps=1e-05, momentum=0.1, affine=True, track_running_stats=True)\n    )\n  )\n  (layer2): Sequential(\n    (0): BasicBlock(\n      (conv1): Conv2d(64, 128, kernel_size=(3, 3), stride=(2, 2), padding=(1, 1), bias=False)\n      (bn1): BatchNorm2d(128, eps=1e-05, momentum=0.1, affine=True, track_running_stats=True)\n      (relu): ReLU(inplace=True)\n      (conv2): Conv2d(128, 128, kernel_size=(3, 3), stride=(1, 1), padding=(1, 1), bias=False)\n      (bn2): BatchNorm2d(128, eps=1e-05, momentum=0.1, affine=True, track_running_stats=True)\n      (downsample): Sequential(\n        (0): Conv2d(64, 128, kernel_size=(1, 1), stride=(2, 2), bias=False)\n        (1): BatchNorm2d(128, eps=1e-05, momentum=0.1, affine=True, track_running_stats=True)\n      )\n    )\n    (1): BasicBlock(\n      (conv1): Conv2d(128, 128, kernel_size=(3, 3), stride=(1, 1), padding=(1, 1), bias=False)\n      (bn1): BatchNorm2d(128, eps=1e-05, momentum=0.1, affine=True, track_running_stats=True)\n      (relu): ReLU(inplace=True)\n      (conv2): Conv2d(128, 128, kernel_size=(3, 3), stride=(1, 1), padding=(1, 1), bias=False)\n      (bn2): BatchNorm2d(128, eps=1e-05, momentum=0.1, affine=True, track_running_stats=True)\n    )\n  )\n  (layer3): Sequential(\n    (0): BasicBlock(\n      (conv1): Conv2d(128, 256, kernel_size=(3, 3), stride=(2, 2), padding=(1, 1), bias=False)\n      (bn1): BatchNorm2d(256, eps=1e-05, momentum=0.1, affine=True, track_running_stats=True)\n      (relu): ReLU(inplace=True)\n      (conv2): Conv2d(256, 256, kernel_size=(3, 3), stride=(1, 1), padding=(1, 1), bias=False)\n      (bn2): BatchNorm2d(256, eps=1e-05, momentum=0.1, affine=True, track_running_stats=True)\n      (downsample): Sequential(\n        (0): Conv2d(128, 256, kernel_size=(1, 1), stride=(2, 2), bias=False)\n        (1): BatchNorm2d(256, eps=1e-05, momentum=0.1, affine=True, track_running_stats=True)\n      )\n    )\n    (1): BasicBlock(\n      (conv1): Conv2d(256, 256, kernel_size=(3, 3), stride=(1, 1), padding=(1, 1), bias=False)\n      (bn1): BatchNorm2d(256, eps=1e-05, momentum=0.1, affine=True, track_running_stats=True)\n      (relu): ReLU(inplace=True)\n      (conv2): Conv2d(256, 256, kernel_size=(3, 3), stride=(1, 1), padding=(1, 1), bias=False)\n      (bn2): BatchNorm2d(256, eps=1e-05, momentum=0.1, affine=True, track_running_stats=True)\n    )\n  )\n  (layer4): Sequential(\n    (0): BasicBlock(\n      (conv1): Conv2d(256, 512, kernel_size=(3, 3), stride=(2, 2), padding=(1, 1), bias=False)\n      (bn1): BatchNorm2d(512, eps=1e-05, momentum=0.1, affine=True, track_running_stats=True)\n      (relu): ReLU(inplace=True)\n      (conv2): Conv2d(512, 512, kernel_size=(3, 3), stride=(1, 1), padding=(1, 1), bias=False)\n      (bn2): BatchNorm2d(512, eps=1e-05, momentum=0.1, affine=True, track_running_stats=True)\n      (downsample): Sequential(\n        (0): Conv2d(256, 512, kernel_size=(1, 1), stride=(2, 2), bias=False)\n        (1): BatchNorm2d(512, eps=1e-05, momentum=0.1, affine=True, track_running_stats=True)\n      )\n    )\n    (1): BasicBlock(\n      (conv1): Conv2d(512, 512, kernel_size=(3, 3), stride=(1, 1), padding=(1, 1), bias=False)\n      (bn1): BatchNorm2d(512, eps=1e-05, momentum=0.1, affine=True, track_running_stats=True)\n      (relu): ReLU(inplace=True)\n      (conv2): Conv2d(512, 512, kernel_size=(3, 3), stride=(1, 1), padding=(1, 1), bias=False)\n      (bn2): BatchNorm2d(512, eps=1e-05, momentum=0.1, affine=True, track_running_stats=True)\n    )\n  )\n  (avgpool): AdaptiveAvgPool2d(output_size=(1, 1))\n  (fc): Linear(in_features=512, out_features=2, bias=True)\n)",
        "test_data": [
            "https://raw.githubusercontent.com/TacoXDD/homeworks/master/dataset/test/test_normal.npy",
            "https://raw.githubusercontent.com/TacoXDD/homeworks/master/dataset/test/test_pneumonia.npy"
        ],
        "test_avg_loss": 1.497456060702881,
        "test_accuracy": 76.75
    }
]