…
            "2023-11-01 11:11:55.418993",
            "2023-11-01 11:12:09.860990",
            "2023-11-01 11:12:24.352021",
            "2023-11-01 11:12:38.825031",
            "2023-11-01 11:12:53.293861",
            "2023-11-01 11:13:07.735083",
            "2023-11-01 11:13:22.192645",
            "2023-11-01 11:13:36.702743",
            "2023-11-01 11:13:51.444112",
            "2023-11-01 11:14:05.973729",
            "2023-11-01 11:14:20.459073",
            "2023-11-01 11:14:34.908884"
        ],
        "model": "EfficientNet(\n  (features): Sequential(\n    (0): Conv2dNormActivation(\n      (0): Conv2d(3, 32, kernel_size=(3, 3), stride=(2, 2), padding=(1, 1), bias=False)\n      (1): BatchNorm2d(32, eps=1e-05, momentum=0.1, affine=True, track_running_stats=True)\n      (2): SiLU(inplace=True)\n    )\n    (1): Sequential(\n      (0): MBConv(\n        (block): Sequential(\n          (0): Conv2dNormActivation(\n            (0): Conv2d(32, 32, kernel_size=(3, 3), stride=(1, 1), padding=(1, 1), groups=32, bias=False)\n            (1): BatchNorm2d(32, eps=1e-05, momentum=0.1, affine=True, track_running_stats=True)\n            (2): SiLU(inplace=True)\n          )\n          (1): SqueezeExcitation(\n            (avgpool): AdaptiveAvgPool2d(output_size=1)\n            (fc1): Conv2d(32, 8, kernel_size=(1, 1), stride=(1, 1))\n            (fc2): Conv2d(8, 32, kernel_size=(1, 1), stride=(1, 1))\n            (activation): SiLU(inplace=True)\n            (scale_activation): Sigmoid()\n          )\n          (2): Conv2dNormActivation(\n            (0): Conv2d(32, 16, kernel_size=(1, 1), stride=(1, 1), bias=False)\n            (1): BatchNorm2d(16, eps=1e-05, momentum=0.1, affine=True, track_running_stats=True)\n          )\n        )\n        (stochastic_depth): StochasticDepth(p=0.0, mode=row)\n      )\n      (1): MBConv(\n        (block): Sequential(\n          (0): Conv2dNormActivation(\n            (0): Conv2d(16, 16, kernel_size=(3, 3), stride=(1, 1), padding=(1, 1), groups=16, bias=False)\n            (1): BatchNorm2d(16, eps=1e-05, momentum=0.1, affine=True, track_running_stats=True)\n            (2): SiLU(inplace=True)\n          )\n          (1): SqueezeExcitation(\n            (avgpool): AdaptiveAvgPool2d(output_size=1)\n            (fc1): Conv2d(16, 4, kernel_size=(1, 1), stride=(1, 1))\n            (fc2): Conv2d(4, 16, kernel_size=(1, 1), stride=(1, 1))\n            (activation): SiLU(inplace=True)\n            (scale_activation): Sigmoid()\n          )\n          (2): Conv2dNormActivation(\n            (0): Conv2d(16, 16, kernel_size=(1, 1), stride=(1, 1), bias=False)\n            (1): BatchNorm2d(16, eps=1e-05, momentum=0.1, affine=True, track_running_stats=True)\n          )\n        )\n        (stochastic_depth): StochasticDepth(p=0.008695652173913044, mode=row)\n      )\n    )\n    (2): Sequential(\n      (0): MBConv(\n        (block): Sequential(\n          (0): Conv2dNormActivation(\n            (0): Conv2d(16, 96, kernel_size=(1, 1), stride=(1, 1), bias=False)\n            (1): BatchNorm2d(96, eps=1e-05, momentum=0.1, affine=True, track_running_stats=True)\n            (2): SiLU(inplace=True)\n          )\n          (1): Conv2dNormActivation(\n            (0): Conv2d(96, 96, kernel_size=(3, 3), stride=(2, 2), padding=(1, 1), groups=96, bias=False)\n            (1): BatchNorm2d(96, eps=1e-05, momentum=0.1, affine=True, track_running_stats=True)\n            (2): SiLU(inplace=True)\n          )\n          (2): SqueezeExcitation(\n            (avgpool): AdaptiveAvgPool2d(output_size=1)\n            (fc1): Conv2d(96, 4, kernel_size=(1, 1), stride=(1, 1))\n            (fc2): Conv2d(4, 96, kernel_size=(1, 1), stride=(1, 1))\n            (activation): SiLU(inplace=True)\n            (scale_activation): Sigmoid()\n          )\n          (3): Conv2dNormActivation(\n            (0): Conv2d(96, 24, kernel_size=(1, 1), stride=(1, 1), bias=False)\n            (1): BatchNorm2d(24, eps=1e-05, momentum=0.1, affine=True, track_running_stats=True)\n          )\n        )\n        (stochastic_depth): StochasticDepth(p=0.017391304347826087, mode=row)\n      )\n      (1): MBConv(\n        (block): Sequential(\n          (0): Conv2dNormActivation(\n            (0): Conv2d(24, 144, kernel_size=(1, 1), stride=(1, 1), bias=False)\n            (1): BatchNorm2d(144, eps=1e-05, momentum=0.1, affine=True, track_running_stats=True)\n            (2): SiLU(inplace=True)\n          )\n          (1): Conv2dNormActivation(\n            (0): Conv2d(144, 144, kernel_size=(3, 3), stride=(1, 1), padding=(1, 1), groups=144, bias=False)\n            (1): BatchNorm2d(144, eps=1e-05, momentum=0.1, affine=True, track_running_stats=True)\n            (2): SiLU(inplace=True)\n          )\n          (2): SqueezeExcitation(\n            (avgpool): AdaptiveAvgPool2d(output_size=1)\n            (fc1): Conv2d(144, 6, kernel_size=(1, 1), stride=(1, 1))\n            (fc2): Conv2d(6, 144, kernel_size=(1, 1), stride=(1, 1))\n            (activation): SiLU(inplace=True)\n            (scale_activation): Sigmoid()\n          )\n          (3): Conv2dNormActivation(\n            (0): Conv2d(144, 24, kernel_size=(1, 1), stride=(1, 1), bias=False)\n            (1): BatchNorm2d(24, eps=1e-05, momentum=0.1, affine=True, track_running_stats=True)\n          )\n        )\n        (stochastic_depth): StochasticDepth(p=0.026086956521739136, mode=row)\n      )\n      (2): MBConv(\n        (block): Sequential(\n          (0): Conv2dNormActivation(\n            (0): Conv2d(24, 144, kernel_size=(1, 1), stride=(1, 1), bias=False)\n            (1): BatchNorm2d(144, eps=1e-05, momentum=0.1, affine=True, track_running_stats=True)\n            (2): SiLU(inplace=True)\n          )\n          (1): Conv2dNormActivation(\n            (0): Conv2d(144, 144, kernel_size=(3, 3), stride=(1, 1), padding=(1, 1), groups=144, bias=False)\n            (1): BatchNorm2d(144, eps=1e-05, momentum=0.1, affine=True, track_running_stats=True)\n            (2): SiLU(inplace=True)\n          )\n          (2): SqueezeExcitation(\n            (avgpool): AdaptiveAvgPool2d(output_size=1)\n            (fc1): Conv2d(144, 6, kernel_size=(1, 1), stride=(1, 1))\n            (fc2): Conv2d(6, 144, kernel_size=(1, 1), stride=(1, 1))\n            (activation): SiLU(inplace=True)\n            (scale_activation): Sigmoid()\n          )\n          (3): Conv2dNormActivation(\n            (0): Conv2d(144, 24, kernel_size=(1, 1), stride=(1, 1), bias=False)\n            (1): BatchNorm2d(24, eps=1e-05, momentum=0.1, affine=True, track_running_stats=True)\n          )\n        )\n        (stochastic_depth): StochasticDepth(p=0.034782608695652174, mode=row)\n      )\n    )\n    (3): Sequential(\n      (0): MBConv(\n        (block): Sequential(\n          (0): Conv2dNormActivation(\n            (0): Conv2d(24, 144, kernel_size=(1, 1), stride=(1, 1), bias=False)\n            (1): BatchNorm2d(144, eps=1e-05, momentum=0.1, affine=True, track_running_stats=True)\n            (2): SiLU(inplace=True)\n          )\n          (1): Conv2dNormActivation(\n            (0): Conv2d(144, 144, kernel_size=(5, 5), stride=(2, 2), padding=(2, 2), groups=144, bias=False)\n            (1): BatchNorm2d(144, eps=1e-05, momentum=0.1, affine=True, track_running_stats=True)\n            (2): SiLU(inplace=True)\n          )\n          (2): SqueezeExcitation(\n            (avgpool): AdaptiveAvgPool2d(output_size=1)\n            (fc1): Conv2d(144, 6, kernel_size=(1, 1), stride=(1, 1))\n            (fc2): Conv2d(6, 144, kernel_size=(1, 1), stride=(1, 1))\n            (activation): SiLU(inplace=True)\n            (scale_activation): Sigmoid()\n          )\n          (3): Conv2dNormActivation(\n            (0): Conv2d(144, 40, kernel_size=(1, 1), stride=(1, 1), bias=False)\n            (1): BatchNorm2d(40, eps=1e-05, momentum=0.1, affine=True, track_running_stats=True)\n          )\n        )\n        (stochastic_depth): StochasticDepth(p=0.043478260869565216, mode=row)\n      )\n      (1): MBConv(\n        (block): Sequential(\n          (0): Conv2dNormActivation(\n            (0): Conv2d(40, 240, kernel_size=(1, 1), stride=(1, 1), bias=False)\n            (1): BatchNorm2d(240, eps=1e-05, momentum=0.1, affine=True, track_running_stats=True)\n            (2): SiLU(inplace=True)\n          )\n          (1): Conv2dNormActivation(\n            (0): Conv2d(240, 240, kernel_size=(5, 5), stride=(1, 1), padding=(2, 2), groups=240, bias=False)\n            (1): BatchNorm2d(240, eps=1e-05, momentum=0.1, affine=True, track_running_stats=True)\n            (2): SiLU(inplace=True)\n          )\n          (2): SqueezeExcitation(\n            (avgpool): AdaptiveAvgPool2d(output_size=1)\n            (fc1): Conv2d(240, 10, kernel_size=(1, 1), stride=(1, 1))\n            (fc2): Conv2d(10, 240, kernel_size=(1, 1), stride=(1, 1))\n            (activation): SiLU(inplace=True)\n            (scale_activation): Sigmoid()\n          )\n          (3): Conv2dNormActivation(\n            (0): Conv2d(240, 40, kernel_size=(1, 1), stride=(1, 1), bias=False)\n            (1): BatchNorm2d(40, eps=1e-05, momentum=0.1, affine=True, track_running_stats=True)\n          )\n        )\n        (stochastic_depth): StochasticDepth(p=0.05217391304347827, mode=row)\n      )\n      (2): MBConv(\n        (block): Sequential(\n          (0): Conv2dNormActivation(\n            (0): Conv2d(40, 240, kernel_size=(1, 1), stride=(1, 1), bias=False)\n            (1): BatchNorm2d(240, eps=1e-05, momentum=0.1, affine=True, track_running_stats=True)\n            (2): SiLU(inplace=True)\n          )\n          (1): Conv2dNormActivation(\n            (0): Conv2d(240, 240, kernel_size=(5, 5), stride=(1, 1), padding=(2, 2), groups=240, bias=False)\n            (1): BatchNorm2d(240, eps=1e-05, momentum=0.1, affine=True, track_running_stats=True)\n            (2): SiLU(inplace=True)\n          )\n          (2): SqueezeExcitation(\n            (avgpool): AdaptiveAvgPool2d(output_size=1)\n            (fc1): Conv2d(240, 10, kernel_size=(1, 1), stride=(1, 1))\n            (fc2): Conv2d(10, 240, kernel_size=(1, 1), stride=(1, 1))\n            (activation): SiLU(inplace=True)\n            (scale_activation): Sigmoid()\n          )\n          (3): Conv2dNormActivation(\n            (0): Conv2d(240, 40, kernel_size=(1, 1), stride=(1, 1), bias=False)\n            (1): BatchNorm2d(40, eps=1e-05, momentum=0.1, affine=True, track_running_stats=True)\n          )\n        )\n        (stochastic_depth): StochasticDepth(p=0.06086956521739131, mode=row)\n      )\n    )\n    (4): Sequential(\n      (0): MBConv(\n        (block): Sequential(\n          (0): Conv2dNormActivation(\n            (0): Conv2d(40, 240, kernel_size=(1, 1), stride=(1, 1), bias=False)\n            (1): BatchNorm2d(240, eps=1e-05, momentum=0.1, affine=True, track_running_stats=True)\n            (2): SiLU(inplace=True)\n          )\n          (1): Conv2dNormActivation(\n            (0): Conv2d(240, 240, kernel_size=(3, 3), stride=(2, 2), padding=(1, 1), groups=240, bias=False)\n            (1): BatchNorm2d(240, eps=1e-05, momentum=0.1, affine=True, track_running_stats=True)\n            (2): SiLU(inplace=True)\n          )\n          (2): SqueezeExcitation(\n            (avgpool): AdaptiveAvgPool2d(output_size=1)\n            (fc1): Conv2d(240, 10, kernel_size=(1, 1), stride=(1, 1))\n            (fc2): Conv2d(10, 240, kernel_size=(1, 1), stride=(1, 1))\n            (activation): SiLU(inplace=True)\n            (scale_activation): Sigmoid()\n          )\n          (3): Conv2dNormActivation(\n            (0): Conv2d(240, 80, kernel_size=(1, 1), stride=(1, 1), bias=False)\n            (1): BatchNorm2d(80, eps=1e-05, momentum=0.1, affine=True, track_running_stats=True)\n          )\n        )\n        (stochastic_depth): StochasticDepth(p=0.06956521739130435, mode=row)\n      )\n      (1): MBConv(\n        (block): Sequential(\n          (0): Conv2dNormActivation(\n            (0): Conv2d(80, 480, kernel_size=(1, 1), stride=(1, 1), bias=False)\n            (1): BatchNorm2d(480, eps=1e-05, momentum=0.1, affine=True, track_running_stats=True)\n            (2): SiLU(inplace=True)\n          )\n          (1): Conv2dNormActivation(\n            (0): Conv2d(480, 480, kernel_size=(3, 3), stride=(1, 1), padding=(1, 1), groups=480, bias=False)\n            (1): BatchNorm2d(480, eps=1e-05, momentum=0.1, affine=True, track_running_stats=True)\n            (2): SiLU(inplace=True)\n          )\n          (2): SqueezeExcitation(\n            (avgpool): AdaptiveAvgPool2d(output_size=1)\n            (fc1): Conv2d(480, 20, kernel_size=(1, 1), stride=(1, 1))\n            (fc2): Conv2d(20, 480, kernel_size=(1, 1), stride=(1, 1))\n            (activation): SiLU(inplace=True)\n            (scale_activation): Sigmoid()\n          )\n          (3): Conv2dNormActivation(\n            (0): Conv2d(480, 80, kernel_size=(1, 1), stride=(1, 1), bias=False)\n            (1): BatchNorm2d(80, eps=1e-05, momentum=0.1, affine=True, track_running_stats=True)\n          )\n        )\n        (stochastic_depth): StochasticDepth(p=0.0782608695652174, mode=row)\n      )\n      (2): MBConv(\n        (block): Sequential(\n          (0): Conv2dNormActivation(\n            (0): Conv2d(80, 480, kernel_size=(1, 1), stride=(1, 1), bias=False)\n            (1): BatchNorm2d(480, eps=1e-05, momentum=0.1, affine=True, track_running_stats=True)\n            (2): SiLU(inplace=True)\n          )\n          (1): Conv2dNormActivation(\n            (0): Conv2d(480, 480, kernel_size=(3, 3), stride=(1, 1), padding=(1, 1), groups=480, bias=False)\n            (1): BatchNorm2d(480, eps=1e-05, momentum=0.1, affine=True, track_running_stats=True)\n            (2): SiLU(inplace=True)\n          )\n          (2): SqueezeExcitation(\n            (avgpool): AdaptiveAvgPool2d(output_size=1)\n            (fc1): Conv2d(480, 20, kernel_size=(1, 1), stride=(1, 1))\n            (fc2): Conv2d(20, 480, kernel_size=(1, 1), stride=(1, 1))\n            (activation): SiLU(inplace=True)\n            (scale_activation): Sigmoid()\n          )\n          (3): Conv2dNormActivation(\n            (0): Conv2d(480, 80, kernel_size=(1, 1), stride=(1, 1), bias=False)\n            (1): BatchNorm2d(80, eps=1e-05, momentum=0.1, affine=True, track_running_stats=True)\n          )\n        )\n        (stochastic_depth): StochasticDepth(p=0.08695652173913043, mode=row)\n      )\n      (3): MBConv(\n        (block): Sequential(\n          (0): Conv2dNormActivation(\n            (0): Conv2d(80, 480, kernel_size=(1, 1), stride=(1, 1), bias=False)\n            (1): BatchNorm2d(480, eps=1e-05, momentum=0.1, affine=True, track_running_stats=True)\n            (2): SiLU(inplace=True)\n          )\n          (1): Conv2dNormActivation(\n            (0): Conv2d(480, 480, kernel_size=(3, 3), stride=(1, 1), padding=(1, 1), groups=480, bias=False)\n            (1): BatchNorm2d(480, eps=1e-05, momentum=0.1, affine=True, track_running_stats=True)\n            (2): SiLU(inplace=True)\n          )\n          (2): SqueezeExcitation(\n            (avgpool): AdaptiveAvgPool2d(output_size=1)\n            (fc1): Conv2d(480, 20, kernel_size=(1, 1), stride=(1, 1))\n            (fc2): Conv2d(20, 480, kernel_size=(1, 1), stride=(1, 1))\n            (activation): SiLU(inplace=True)\n            (scale_activation): Sigmoid()\n          )\n          (3): Conv2dNormActivation(\n            (0): Conv2d(480, 80, kernel_size=(1, 1), stride=(1, 1), bias=False)\n            (1): BatchNorm2d(80, eps=1e-05, momentum=0.1, affine=True, track_running_stats=True)\n          )\n        )\n        (stochastic_depth): StochasticDepth(p=0.09565217391304348, mode=row)\n      )\n    )\n    (5): Sequential(\n      (0): MBConv(\n        (block): Sequential(\n          (0): Conv2dNormActivation(\n            (0): Conv2d(80, 480, kernel_size=(1, 1), stride=(1, 1), bias=False)\n            (1): BatchNorm2d(480, eps=1e-05, momentum=0.1, affine=True, track_running_stats=True)\n            (2): SiLU(inplace=True)\n          )\n          (1): Conv2dNormActivation(\n            (0): Conv2d(480, 480, kernel_size=(5, 5), stride=(1, 1), padding=(2, 2), groups=480, bias=False)\n            (1): BatchNorm2d(480, eps=1e-05, momentum=0.1, affine=True, track_running_stats=True)\n            (2): SiLU(inplace=True)\n          )\n          (2): SqueezeExcitation(\n            (avgpool): AdaptiveAvgPool2d(output_size=1)\n            (fc1): Conv2d(480, 20, kernel_size=(1, 1), stride=(1, 1))\n            (fc2): Conv2d(20, 480, kernel_size=(1, 1), stride=(1, 1))\n            (activation): SiLU(inplace=True)\n            (scale_activation): Sigmoid()\n          )\n          (3): Conv2dNormActivation(\n            (0): Conv2d(480, 112, kernel_size=(1, 1), stride=(1, 1), bias=False)\n            (1): BatchNorm2d(112, eps=1e-05, momentum=0.1, affine=True, track_running_stats=True)\n          )\n        )\n        (stochastic_depth): StochasticDepth(p=0.10434782608695654, mode=row)\n      )\n      (1): MBConv(\n        (block): Sequential(\n          (0): Conv2dNormActivation(\n            (0): Conv2d(112, 672, kernel_size=(1, 1), stride=(1, 1), bias=False)\n            (1): BatchNorm2d(672, eps=1e-05, momentum=0.1, affine=True, track_running_stats=True)\n            (2): SiLU(inplace=True)\n          )\n          (1): Conv2dNormActivation(\n            (0): Conv2d(672, 672, kernel_size=(5, 5), stride=(1, 1), padding=(2, 2), groups=672, bias=False)\n            (1): BatchNorm2d(672, eps=1e-05, momentum=0.1, affine=True, track_running_stats=True)\n            (2): SiLU(inplace=True)\n          )\n          (2): SqueezeExcitation(\n            (avgpool): AdaptiveAvgPool2d(output_size=1)\n            (fc1): Conv2d(672, 28, kernel_size=(1, 1), stride=(1, 1))\n            (fc2): Conv2d(28, 672, kernel_size=(1, 1), stride=(1, 1))\n            (activation): SiLU(inplace=True)\n            (scale_activation): Sigmoid()\n          )\n          (3): Conv2dNormActivation(\n            (0): Conv2d(672, 112, kernel_size=(1, 1), stride=(1, 1), bias=False)\n            (1): BatchNorm2d(112, eps=1e-05, momentum=0.1, affine=True, track_running_stats=True)\n          )\n        )\n        (stochastic_depth): StochasticDepth(p=0.11304347826086956, mode=row)\n      )\n      (2): MBConv(\n        (block): Sequential(\n          (0): Conv2dNormActivation(\n            (0): Conv2d(112, 672, kernel_size=(1, 1), stride=(1, 1), bias=False)\n            (1): BatchNorm2d(672, eps=1e-05, momentum=0.1, affine=True, track_running_stats=True)\n            (2): SiLU(inplace=True)\n          )\n          (1): Conv2dNormActivation(\n            (0): Conv2d(672, 672, kernel_size=(5, 5), stride=(1, 1), padding=(2, 2), groups=672, bias=False)\n            (1): BatchNorm2d(672, eps=1e-05, momentum=0.1, affine=True, track_running_stats=True)\n            (2): SiLU(inplace=True)\n          )\n          (2): SqueezeExcitation(\n            (avgpool): AdaptiveAvgPool2d(output_size=1)\n            (fc1): Conv2d(672, 28, kernel_size=(1, 1), stride=(1, 1))\n            (fc2): Conv2d(28, 672, kernel_size=(1, 1), stride=(1, 1))\n            (activation): SiLU(inplace=True)\n            (scale_activation): Sigmoid()\n          )\n          (3): Conv2dNormActivation(\n            (0): Conv2d(672, 112, kernel_size=(1, 1), stride=(1, 1), bias=False)\n            (1): BatchNorm2d(112, eps=1e-05, momentum=0.1, affine=True, track_running_stats=True)\n          )\n        )\n        (stochastic_depth): StochasticDepth(p=0.12173913043478261, mode=row)\n      )\n      (3): MBConv(\n        (block): Sequential(\n          (0): Conv2dNormActivation(\n            (0): Conv2d(112, 672, kernel_size=(1, 1), stride=(1, 1), bias=False)\n            (1): BatchNorm2d(672, eps=1e-05, momentum=0.1, affine=True, track_running_stats=True)\n            (2): SiLU(inplace=True)\n          )\n          (1): Conv2dNormActivation(\n            (0): Conv2d(672, 672, kernel_size=(5, 5), stride=(1, 1), padding=(2, 2), groups=672, bias=False)\n            (1): BatchNorm2d(672, eps=1e-05, momentum=0.1, affine=True, track_running_stats=True)\n            (2): SiLU(inplace=True)\n          )\n          (2): SqueezeExcitation(\n            (avgpool): AdaptiveAvgPool2d(output_size=1)\n            (fc1): Conv2d(672, 28, kernel_size=(1, 1), stride=(1, 1))\n            (fc2): Conv2d(28, 672, kernel_size=(1, 1), stride=(1, 1))\n            (activation): SiLU(inplace=True)\n            (scale_activation): Sigmoid()\n          )\n          (3): Conv2dNormActivation(\n            (0): Conv2d(672, 112, kernel_size=(1, 1), stride=(1, 1), bias=False)\n            (1): BatchNorm2d(112, eps=1e-05, momentum=0.1, affine=True, track_running_stats=True)\n          )\n        )\n        (stochastic_depth): StochasticDepth(p=0.13043478260869565, mode=row)\n      )\n    )\n    (6): Sequential(\n      (0): MBConv(\n        (block): Sequential(\n          (0): Conv2dNormActivation(\n            (0): Conv2d(112, 672, kernel_size=(1, 1), stride=(1, 1), bias=False)\n            (1): BatchNorm2d(672, eps=1e-05, momentum=0.1, affine=True, track_running_stats=True)\n            (2): SiLU(inplace=True)\n          )\n          (1): Conv2dNormActivation(\n            (0): Conv2d(672, 672, kernel_size=(5, 5), stride=(2, 2), padding=(2, 2), groups=672, bias=False)\n            (1): BatchNorm2d(672, eps=1e-05, momentum=0.1, affine=True, track_running_stats=True)\n            (2): SiLU(inplace=True)\n          )\n          (2): SqueezeExcitation(\n            (avgpool): AdaptiveAvgPool2d(output_size=1)\n            (fc1): Conv2d(672, 28, kernel_size=(1, 1), stride=(1, 1))\n            (fc2): Conv2d(28, 672, kernel_size=(1, 1), stride=(1, 1))\n            (activation): SiLU(inplace=True)\n            (scale_activation): Sigmoid()\n          )\n          (3): Conv2dNormActivation(\n            (0): Conv2d(672, 192, kernel_size=(1, 1), stride=(1, 1), bias=False)\n            (1): BatchNorm2d(192, eps=1e-05, momentum=0.1, affine=True, track_running_stats=True)\n          )\n        )\n        (stochastic_depth): StochasticDepth(p=0.1391304347826087, mode=row)\n      )\n      (1): MBConv(\n        (block): Sequential(\n          (0): Conv2dNormActivation(\n            (0): Conv2d(192, 1152, kernel_size=(1, 1), stride=(1, 1), bias=False)\n            (1): BatchNorm2d(1152, eps=1e-05, momentum=0.1, affine=True, track_running_stats=True)\n            (2): SiLU(inplace=True)\n          )\n          (1): Conv2dNormActivation(\n            (0): Conv2d(1152, 1152, kernel_size=(5, 5), stride=(1, 1), padding=(2, 2), groups=1152, bias=False)\n            (1): BatchNorm2d(1152, eps=1e-05, momentum=0.1, affine=True, track_running_stats=True)\n            (2): SiLU(inplace=True)\n          )\n          (2): SqueezeExcitation(\n            (avgpool): AdaptiveAvgPool2d(output_size=1)\n            (fc1): Conv2d(1152, 48, kernel_size=(1, 1), stride=(1, 1))\n            (fc2): Conv2d(48, 1152, kernel_size=(1, 1), stride=(1, 1))\n            (activation): SiLU(inplace=True)\n            (scale_activation): Sigmoid()\n          )\n          (3): Conv2dNormActivation(\n            (0): Conv2d(1152, 192, kernel_size=(1, 1), stride=(1, 1), bias=False)\n            (1): BatchNorm2d(192, eps=1e-05, momentum=0.1, affine=True, track_running_stats=True)\n          )\n        )\n        (stochastic_depth): StochasticDepth(p=0.14782608695652175, mode=row)\n      )\n      (2): MBConv(\n        (block): Sequential(\n          (0): Conv2dNormActivation(\n            (0): Conv2d(192, 1152, kernel_size=(1, 1), stride=(1, 1), bias=False)\n            (1): BatchNorm2d(1152, eps=1e-05, momentum=0.1, affine=True, track_running_stats=True)\n            (2): SiLU(inplace=True)\n          )\n          (1): Conv2dNormActivation(\n            (0): Conv2d(1152, 1152, kernel_size=(5, 5), stride=(1, 1), padding=(2, 2), groups=1152, bias=False)\n            (1): BatchNorm2d(1152, eps=1e-05, momentum=0.1, affine=True, track_running_stats=True)\n            (2): SiLU(inplace=True)\n          )\n          (2): SqueezeExcitation(\n            (avgpool): AdaptiveAvgPool2d(output_size=1)\n            (fc1): Conv2d(1152, 48, kernel_size=(1, 1), stride=(1, 1))\n            (fc2): Conv2d(48, 1152, kernel_size=(1, 1), stride=(1, 1))\n            (activation): SiLU(inplace=True)\n            (scale_activation): Sigmoid()\n          )\n          (3): Conv2dNormActivation(\n            (0): Conv2d(1152, 192, kernel_size=(1, 1), stride=(1, 1), bias=False)\n            (1): BatchNorm2d(192, eps=1e-05, momentum=0.1, affine=True, track_running_stats=True)\n          )\n        )\n        (stochastic_depth): StochasticDepth(p=0.1565217391304348, mode=row)\n      )\n      (3): MBConv(\n        (block): Sequential(\n          (0): Conv2dNormActivation(\n            (0): Conv2d(192, 1152, kernel_size=(1, 1), stride=(1, 1), bias=False)\n            (1): BatchNorm2d(1152, eps=1e-05, momentum=0.1, affine=True, track_running_stats=True)\n            (2): SiLU(inplace=True)\n          )\n          (1): Conv2dNormActivation(\n            (0): Conv2d(1152, 1152, kernel_size=(5, 5), stride=(1, 1), padding=(2, 2), groups=1152, bias=False)\n            (1): BatchNorm2d(1152, eps=1e-05, momentum=0.1, affine=True, track_running_stats=True)\n            (2): SiLU(inplace=True)\n          )\n          (2): SqueezeExcitation(\n            (avgpool): AdaptiveAvgPool2d(output_size=1)\n            (fc1): Conv2d(1152, 48, kernel_size=(1, 1), stride=(1, 1))\n            (fc2): Conv2d(48, 1152, kernel_size=(1, 1), stride=(1, 1))\n            (activation): SiLU(inplace=True)\n            (scale_activation): Sigmoid()\n          )\n          (3): Conv2dNormActivation(\n            (0): Conv2d(1152, 192, kernel_size=(1, 1), stride=(1, 1), bias=False)\n            (1): BatchNorm2d(192, eps=1e-05, momentum=0.1, affine=True, track_running_stats=True)\n          )\n        )\n        (stochastic_depth): StochasticDepth(p=0.16521739130434784, mode=row)\n      )\n      (4): MBConv(\n        (block): Sequential(\n          (0): Conv2dNormActivation(\n            (0): Conv2d(192, 1152, kernel_size=(1, 1), stride=(1, 1), bias=False)\n            (1): BatchNorm2d(1152, eps=1e-05, momentum=0.1, affine=True, track_running_stats=True)\n            (2): SiLU(inplace=True)\n          )\n          (1): Conv2dNormActivation(\n            (0): Conv2d(1152, 1152, kernel_size=(5, 5), stride=(1, 1), padding=(2, 2), groups=1152, bias=False)\n            (1): BatchNorm2d(1152, eps=1e-05, momentum=0.1, affine=True, track_running_stats=True)\n            (2): SiLU(inplace=True)\n          )\n          (2): SqueezeExcitation(\n            (avgpool): AdaptiveAvgPool2d(output_size=1)\n            (fc1): Conv2d(1152, 48, kernel_size=(1, 1), stride=(1, 1))\n            (fc2): Conv2d(48, 1152, kernel_size=(1, 1), stride=(1, 1))\n            (activation): SiLU(inplace=True)\n            (scale_activation): Sigmoid()\n          )\n          (3): Conv2dNormActivation(\n            (0): Conv2d(1152, 192, kernel_size=(1, 1), stride=(1, 1), bias=False)\n            (1): BatchNorm2d(192, eps=1e-05, momentum=0.1, affine=True, track_running_stats=True)\n          )\n        )\n        (stochastic_depth): StochasticDepth(p=0.17391304347826086, mode=row)\n      )\n    )\n    (7): Sequential(\n      (0): MBConv(\n        (block): Sequential(\n          (0): Conv2dNormActivation(\n            (0): Conv2d(192, 1152, kernel_size=(1, 1), stride=(1, 1), bias=False)\n            (1): BatchNorm2d(1152, eps=1e-05, momentum=0.1, affine=True, track_running_stats=True)\n            (2): SiLU(inplace=True)\n          )\n          (1): Conv2dNormActivation(\n            (0): Conv2d(1152, 1152, kernel_size=(3, 3), stride=(1, 1), padding=(1, 1), groups=1152, bias=False)\n            (1): BatchNorm2d(1152, eps=1e-05, momentum=0.1, affine=True, track_running_stats=True)\n            (2): SiLU(inplace=True)\n          )\n          (2): SqueezeExcitation(\n            (avgpool): AdaptiveAvgPool2d(output_size=1)\n            (fc1): Conv2d(1152, 48, kernel_size=(1, 1), stride=(1, 1))\n            (fc2): Conv2d(48, 1152, kernel_size=(1, 1), stride=(1, 1))\n            (activation): SiLU(inplace=True)\n            (scale_activation): Sigmoid()\n          )\n          (3): Conv2dNormActivation(\n            (0): Conv2d(1152, 320, kernel_size=(1, 1), stride=(1, 1), bias=False)\n            (1): BatchNorm2d(320, eps=1e-05, momentum=0.1, affine=True, track_running_stats=True)\n          )\n        )\n        (stochastic_depth): StochasticDepth(p=0.1826086956521739, mode=row)\n      )\n      (1): MBConv(\n        (block): Sequential(\n          (0): Conv2dNormActivation(\n            (0): Conv2d(320, 1920, kernel_size=(1, 1), stride=(1, 1), bias=False)\n            (1): BatchNorm2d(1920, eps=1e-05, momentum=0.1, affine=True, track_running_stats=True)\n            (2): SiLU(inplace=True)\n          )\n          (1): Conv2dNormActivation(\n            (0): Conv2d(1920, 1920, kernel_size=(3, 3), stride=(1, 1), padding=(1, 1), groups=1920, bias=False)\n            (1): BatchNorm2d(1920, eps=1e-05, momentum=0.1, affine=True, track_running_stats=True)\n            (2): SiLU(inplace=True)\n          )\n          (2): SqueezeExcitation(\n            (avgpool): AdaptiveAvgPool2d(output_size=1)\n            (fc1): Conv2d(1920, 80, kernel_size=(1, 1), stride=(1, 1))\n            (fc2): Conv2d(80, 1920, kernel_size=(1, 1), stride=(1, 1))\n            (activation): SiLU(inplace=True)\n            (scale_activation): Sigmoid()\n          )\n          (3): Conv2dNormActivation(\n            (0): Conv2d(1920, 320, kernel_size=(1, 1), stride=(1, 1), bias=False)\n            (1): BatchNorm2d(320, eps=1e-05, momentum=0.1, affine=True, track_running_stats=True)\n          )\n        )\n        (stochastic_depth): StochasticDepth(p=0.19130434782608696, mode=row)\n      )\n    )\n    (8): Conv2dNormActivation(\n      (0): Conv2d(320, 1280, kernel_size=(1, 1), stride=(1, 1), bias=False)\n      (1): BatchNorm2d(1280, eps=1e-05, momentum=0.1, affine=True, track_running_stats=True)\n      (2): SiLU(inplace=True)\n    )\n  )\n  (avgpool): AdaptiveAvgPool2d(output_size=1)\n  (classifier): Sequential(\n    (0): Dropout(p=0.2, inplace=True)\n    (1): Linear(in_features=1280, out_features=2, bias=True)\n  )\n)",
        "test_data": [
            "https://raw.githubusercontent.com/TacoXDD/homeworks/master/dataset/test/test_normal.npy",
            "https://raw.githubusercontent.com/TacoXDD/homeworks/master/dataset/test/test_pneumonia.npy"
        ],
        "test_avg_loss": 1.7503664427349577,
        "test_accuracy": 73.25
    }
]